…
cnn_activation: relu
cnn_filters1: 128
cnn_filters2: 128
cnn_kernel_size: 5
cnn_pool_size: 3
dropout_rate: 0.5229
embedding_dim: 64
learning_rate: 0.001
ff_dim_factor: 6
num_heads: 4
num_transformer_blocks: 2
use_regularization: True
weight_decay: 0.0006191
epochs: 1000
patience_early: 50
patience_reduce_lr: 20

=== RESUMEN DEL MODELO ===
Model: "functional"
┏━━━━━━━━━━━━━━━━━━━━━┳━━━━━━━━━━━━━━━━━━━┳━━━━━━━━━━━━┳━━━━━━━━━━━━━━━━━━━┓
┃ Layer (type)        ┃ Output Shape      ┃    Param # ┃ Connected to      ┃
┡━━━━━━━━━━━━━━━━━━━━━╇━━━━━━━━━━━━━━━━━━━╇━━━━━━━━━━━━╇━━━━━━━━━━━━━━━━━━━┩
│ input_binding_doc2… │ (None, 256)       │          0 │ -                 │
│ (InputLayer)        │                   │            │                   │
├─────────────────────┼───────────────────┼────────────┼───────────────────┤
│ input_binding_doc2… │ (None, 256)       │          0 │ -                 │
│ (InputLayer)        │                   │            │                   │
├─────────────────────┼───────────────────┼────────────┼───────────────────┤
│ input_binding_doc2… │ (None, 256)       │          0 │ -                 │
│ (InputLayer)        │                   │            │                   │
├─────────────────────┼───────────────────┼────────────┼───────────────────┤
│ dense_6 (Dense)     │ (None, 64)        │     16,448 │ input_binding_do… │
├─────────────────────┼───────────────────┼────────────┼───────────────────┤
│ dense_8 (Dense)     │ (None, 64)        │     16,448 │ input_binding_do… │
├─────────────────────┼───────────────────┼────────────┼───────────────────┤
│ dense_14 (Dense)    │ (None, 64)        │     16,448 │ input_binding_do… │
├─────────────────────┼───────────────────┼────────────┼───────────────────┤
│ batch_normalization │ (None, 64)        │        256 │ dense_6[0][0]     │
│ (BatchNormalizatio… │                   │            │                   │
├─────────────────────┼───────────────────┼────────────┼───────────────────┤
│ batch_normalizatio… │ (None, 64)        │        256 │ dense_8[0][0]     │
│ (BatchNormalizatio… │                   │            │                   │
├─────────────────────┼───────────────────┼────────────┼───────────────────┤
│ batch_normalizatio… │ (None, 64)        │        256 │ dense_14[0][0]    │
│ (BatchNormalizatio… │                   │            │                   │
├─────────────────────┼───────────────────┼────────────┼───────────────────┤
│ input_mir_doc2vec   │ (None, 256)       │          0 │ -                 │
│ (InputLayer)        │                   │            │                   │
├─────────────────────┼───────────────────┼────────────┼───────────────────┤
│ input_lnc_doc2vec   │ (None, 256)       │          0 │ -                 │
│ (InputLayer)        │                   │            │                   │
├─────────────────────┼───────────────────┼────────────┼───────────────────┤
│ input_lnc_role2vec  │ (None, 256)       │          0 │ -                 │
│ (InputLayer)        │                   │            │                   │
├─────────────────────┼───────────────────┼────────────┼───────────────────┤
│ input_mir_ctd       │ (None, 30)        │          0 │ -                 │
│ (InputLayer)        │                   │            │                   │
├─────────────────────┼───────────────────┼────────────┼───────────────────┤
│ input_lnc_features  │ (None, 4)         │          0 │ -                 │
│ (InputLayer)        │                   │            │                   │
├─────────────────────┼───────────────────┼────────────┼───────────────────┤
│ input_mir_especifi… │ (None, 256)       │          0 │ -                 │
│ (InputLayer)        │                   │            │                   │
├─────────────────────┼───────────────────┼────────────┼───────────────────┤
│ dropout_6 (Dropout) │ (None, 64)        │          0 │ batch_normalizat… │
├─────────────────────┼───────────────────┼────────────┼───────────────────┤
│ dropout_7 (Dropout) │ (None, 64)        │          0 │ batch_normalizat… │
├─────────────────────┼───────────────────┼────────────┼───────────────────┤
│ input_mir_especifi… │ (None, 256)       │          0 │ -                 │
│ (InputLayer)        │                   │            │                   │
├─────────────────────┼───────────────────┼────────────┼───────────────────┤
│ input_mir_especifi… │ (None, 340)       │          0 │ -                 │
│ (InputLayer)        │                   │            │                   │
├─────────────────────┼───────────────────┼────────────┼───────────────────┤
│ input_mir_features  │ (None, 4)         │          0 │ -                 │
│ (InputLayer)        │                   │            │                   │
├─────────────────────┼───────────────────┼────────────┼───────────────────┤
│ input_lnc_kmer      │ (None, 340)       │          0 │ -                 │
│ (InputLayer)        │                   │            │                   │
├─────────────────────┼───────────────────┼────────────┼───────────────────┤
│ dropout_12          │ (None, 64)        │          0 │ batch_normalizat… │
│ (Dropout)           │                   │            │                   │
├─────────────────────┼───────────────────┼────────────┼───────────────────┤
│ input_mir_kmer      │ (None, 340)       │          0 │ -                 │
│ (InputLayer)        │                   │            │                   │
├─────────────────────┼───────────────────┼────────────┼───────────────────┤
│ input_mir_role2vec  │ (None, 256)       │          0 │ -                 │
│ (InputLayer)        │                   │            │                   │
├─────────────────────┼───────────────────┼────────────┼───────────────────┤
│ input_binding_feat… │ (None, 6)         │          0 │ -                 │
│ (InputLayer)        │                   │            │                   │
├─────────────────────┼───────────────────┼────────────┼───────────────────┤
│ input_mir_especifi… │ (None, 30)        │          0 │ -                 │
│ (InputLayer)        │                   │            │                   │
├─────────────────────┼───────────────────┼────────────┼───────────────────┤
│ input_binding_feat… │ (None, 6)         │          0 │ -                 │
│ (InputLayer)        │                   │            │                   │
├─────────────────────┼───────────────────┼────────────┼───────────────────┤
│ input_lnc_ctd       │ (None, 30)        │          0 │ -                 │
│ (InputLayer)        │                   │            │                   │
├─────────────────────┼───────────────────┼────────────┼───────────────────┤
│ dense (Dense)       │ (None, 64)        │     16,448 │ input_mir_doc2ve… │
├─────────────────────┼───────────────────┼────────────┼───────────────────┤
│ dense_1 (Dense)     │ (None, 64)        │     16,448 │ input_lnc_doc2ve… │
├─────────────────────┼───────────────────┼────────────┼───────────────────┤
│ dense_2 (Dense)     │ (None, 64)        │     16,448 │ input_lnc_role2v… │
├─────────────────────┼───────────────────┼────────────┼───────────────────┤
│ dense_3 (Dense)     │ (None, 64)        │      1,984 │ input_mir_ctd[0]… │
├─────────────────────┼───────────────────┼────────────┼───────────────────┤
│ dense_4 (Dense)     │ (None, 64)        │        320 │ input_lnc_featur… │
├─────────────────────┼───────────────────┼────────────┼───────────────────┤
│ dense_5 (Dense)     │ (None, 64)        │     16,448 │ input_mir_especi… │
├─────────────────────┼───────────────────┼────────────┼───────────────────┤
│ dense_7 (Dense)     │ (None, 64)        │      4,160 │ dropout_6[0][0]   │
├─────────────────────┼───────────────────┼────────────┼───────────────────┤
│ dense_9 (Dense)     │ (None, 64)        │      4,160 │ dropout_7[0][0]   │
├─────────────────────┼───────────────────┼────────────┼───────────────────┤
│ dense_10 (Dense)    │ (None, 64)        │     16,448 │ input_mir_especi… │
├─────────────────────┼───────────────────┼────────────┼───────────────────┤
│ dense_11 (Dense)    │ (None, 64)        │     21,824 │ input_mir_especi… │
├─────────────────────┼───────────────────┼────────────┼───────────────────┤
│ dense_12 (Dense)    │ (None, 64)        │        320 │ input_mir_featur… │
├─────────────────────┼───────────────────┼────────────┼───────────────────┤
│ dense_13 (Dense)    │ (None, 64)        │     21,824 │ input_lnc_kmer[0… │
├─────────────────────┼───────────────────┼────────────┼───────────────────┤
│ dense_15 (Dense)    │ (None, 64)        │      4,160 │ dropout_12[0][0]  │
├─────────────────────┼───────────────────┼────────────┼───────────────────┤
│ dense_16 (Dense)    │ (None, 64)        │     21,824 │ input_mir_kmer[0… │
├─────────────────────┼───────────────────┼────────────┼───────────────────┤
│ dense_17 (Dense)    │ (None, 64)        │     16,448 │ input_mir_role2v… │
├─────────────────────┼───────────────────┼────────────┼───────────────────┤
│ dense_18 (Dense)    │ (None, 64)        │        448 │ input_binding_fe… │
├─────────────────────┼───────────────────┼────────────┼───────────────────┤
│ dense_19 (Dense)    │ (None, 64)        │      1,984 │ input_mir_especi… │
├─────────────────────┼───────────────────┼────────────┼───────────────────┤
│ dense_20 (Dense)    │ (None, 64)        │        448 │ input_binding_fe… │
├─────────────────────┼───────────────────┼────────────┼───────────────────┤
│ dense_21 (Dense)    │ (None, 64)        │      1,984 │ input_lnc_ctd[0]… │
├─────────────────────┼───────────────────┼────────────┼───────────────────┤
│ dropout (Dropout)   │ (None, 64)        │          0 │ dense[0][0]       │
├─────────────────────┼───────────────────┼────────────┼───────────────────┤
│ dropout_1 (Dropout) │ (None, 64)        │          0 │ dense_1[0][0]     │
├─────────────────────┼───────────────────┼────────────┼───────────────────┤
│ dropout_2 (Dropout) │ (None, 64)        │          0 │ dense_2[0][0]     │
├─────────────────────┼───────────────────┼────────────┼───────────────────┤
│ dropout_3 (Dropout) │ (None, 64)        │          0 │ dense_3[0][0]     │
├─────────────────────┼───────────────────┼────────────┼───────────────────┤
│ dropout_4 (Dropout) │ (None, 64)        │          0 │ dense_4[0][0]     │
├─────────────────────┼───────────────────┼────────────┼───────────────────┤
│ dropout_5 (Dropout) │ (None, 64)        │          0 │ dense_5[0][0]     │
├─────────────────────┼───────────────────┼────────────┼───────────────────┤
│ batch_normalizatio… │ (None, 64)        │        256 │ dense_7[0][0]     │
│ (BatchNormalizatio… │                   │            │                   │
├─────────────────────┼───────────────────┼────────────┼───────────────────┤
│ batch_normalizatio… │ (None, 64)        │        256 │ dense_9[0][0]     │
│ (BatchNormalizatio… │                   │            │                   │
├─────────────────────┼───────────────────┼────────────┼───────────────────┤
│ dropout_8 (Dropout) │ (None, 64)        │          0 │ dense_10[0][0]    │
├─────────────────────┼───────────────────┼────────────┼───────────────────┤
│ dropout_9 (Dropout) │ (None, 64)        │          0 │ dense_11[0][0]    │
├─────────────────────┼───────────────────┼────────────┼───────────────────┤
│ dropout_10          │ (None, 64)        │          0 │ dense_12[0][0]    │
│ (Dropout)           │                   │            │                   │
├─────────────────────┼───────────────────┼────────────┼───────────────────┤
│ dropout_11          │ (None, 64)        │          0 │ dense_13[0][0]    │
│ (Dropout)           │                   │            │                   │
├─────────────────────┼───────────────────┼────────────┼───────────────────┤
│ batch_normalizatio… │ (None, 64)        │        256 │ dense_15[0][0]    │
│ (BatchNormalizatio… │                   │            │                   │
├─────────────────────┼───────────────────┼────────────┼───────────────────┤
│ dropout_13          │ (None, 64)        │          0 │ dense_16[0][0]    │
│ (Dropout)           │                   │            │                   │
├─────────────────────┼───────────────────┼────────────┼───────────────────┤
│ dropout_14          │ (None, 64)        │          0 │ dense_17[0][0]    │
│ (Dropout)           │                   │            │                   │
├─────────────────────┼───────────────────┼────────────┼───────────────────┤
│ dropout_15          │ (None, 64)        │          0 │ dense_18[0][0]    │
│ (Dropout)           │                   │            │                   │
├─────────────────────┼───────────────────┼────────────┼───────────────────┤
│ dropout_16          │ (None, 64)        │          0 │ dense_19[0][0]    │
│ (Dropout)           │                   │            │                   │
├─────────────────────┼───────────────────┼────────────┼───────────────────┤
│ dropout_17          │ (None, 64)        │          0 │ dense_20[0][0]    │
│ (Dropout)           │                   │            │                   │
├─────────────────────┼───────────────────┼────────────┼───────────────────┤
│ dropout_18          │ (None, 64)        │          0 │ dense_21[0][0]    │
│ (Dropout)           │                   │            │                   │
├─────────────────────┼───────────────────┼────────────┼───────────────────┤
│ lambda (Lambda)     │ (None, 19, 64)    │          0 │ dropout[0][0],    │
│                     │                   │            │ dropout_1[0][0],  │
│                     │                   │            │ dropout_2[0][0],  │
│                     │                   │            │ dropout_3[0][0],  │
│                     │                   │            │ dropout_4[0][0],  │
│                     │                   │            │ dropout_5[0][0],  │
…
│                     │                   │            │ batch_normalizat… │
│                     │                   │            │ dropout_13[0][0], │
│                     │                   │            │ dropout_14[0][0], │
│                     │                   │            │ dropout_15[0][0], │
│                     │                   │            │ dropout_16[0][0], │
│                     │                   │            │ dropout_17[0][0], │
│                     │                   │            │ dropout_18[0][0]  │
├─────────────────────┼───────────────────┼────────────┼───────────────────┤
│ add (Add)           │ (None, 19, 64)    │          0 │ lambda[0][0]      │
├─────────────────────┼───────────────────┼────────────┼───────────────────┤
│ multi_head_attenti… │ (None, 19, 64)    │     16,640 │ add[0][0],        │
│ (MultiHeadAttentio… │                   │            │ add[0][0]         │
├─────────────────────┼───────────────────┼────────────┼───────────────────┤
│ add_1 (Add)         │ (None, 19, 64)    │          0 │ add[0][0],        │
│                     │                   │            │ multi_head_atten… │
├─────────────────────┼───────────────────┼────────────┼───────────────────┤
│ layer_normalization │ (None, 19, 64)    │        128 │ add_1[0][0]       │
│ (LayerNormalizatio… │                   │            │                   │
├─────────────────────┼───────────────────┼────────────┼───────────────────┤
│ dense_22 (Dense)    │ (None, 19, 384)   │     24,960 │ layer_normalizat… │
├─────────────────────┼───────────────────┼────────────┼───────────────────┤
│ dense_23 (Dense)    │ (None, 19, 64)    │     24,640 │ dense_22[0][0]    │
├─────────────────────┼───────────────────┼────────────┼───────────────────┤
│ dropout_20          │ (None, 19, 64)    │          0 │ dense_23[0][0]    │
│ (Dropout)           │                   │            │                   │
├─────────────────────┼───────────────────┼────────────┼───────────────────┤
│ add_2 (Add)         │ (None, 19, 64)    │          0 │ layer_normalizat… │
│                     │                   │            │ dropout_20[0][0]  │
├─────────────────────┼───────────────────┼────────────┼───────────────────┤
│ layer_normalizatio… │ (None, 19, 64)    │        128 │ add_2[0][0]       │
│ (LayerNormalizatio… │                   │            │                   │
├─────────────────────┼───────────────────┼────────────┼───────────────────┤
│ multi_head_attenti… │ (None, 19, 64)    │     16,640 │ layer_normalizat… │
│ (MultiHeadAttentio… │                   │            │ layer_normalizat… │
├─────────────────────┼───────────────────┼────────────┼───────────────────┤
│ add_3 (Add)         │ (None, 19, 64)    │          0 │ layer_normalizat… │
│                     │                   │            │ multi_head_atten… │
├─────────────────────┼───────────────────┼────────────┼───────────────────┤
│ layer_normalizatio… │ (None, 19, 64)    │        128 │ add_3[0][0]       │
│ (LayerNormalizatio… │                   │            │                   │
├─────────────────────┼───────────────────┼────────────┼───────────────────┤
│ dense_24 (Dense)    │ (None, 19, 384)   │     24,960 │ layer_normalizat… │
├─────────────────────┼───────────────────┼────────────┼───────────────────┤
│ dense_25 (Dense)    │ (None, 19, 64)    │     24,640 │ dense_24[0][0]    │
├─────────────────────┼───────────────────┼────────────┼───────────────────┤
│ dropout_22          │ (None, 19, 64)    │          0 │ dense_25[0][0]    │
│ (Dropout)           │                   │            │                   │
├─────────────────────┼───────────────────┼────────────┼───────────────────┤
│ add_4 (Add)         │ (None, 19, 64)    │          0 │ layer_normalizat… │
│                     │                   │            │ dropout_22[0][0]  │
├─────────────────────┼───────────────────┼────────────┼───────────────────┤
│ layer_normalizatio… │ (None, 19, 64)    │        128 │ add_4[0][0]       │
│ (LayerNormalizatio… │                   │            │                   │
├─────────────────────┼───────────────────┼────────────┼───────────────────┤
│ global_average_poo… │ (None, 64)        │          0 │ layer_normalizat… │
│ (GlobalAveragePool… │                   │            │                   │
├─────────────────────┼───────────────────┼────────────┼───────────────────┤
│ dense_26 (Dense)    │ (None, 64)        │      4,160 │ global_average_p… │
├─────────────────────┼───────────────────┼────────────┼───────────────────┤
│ dropout_23          │ (None, 64)        │          0 │ dense_26[0][0]    │
│ (Dropout)           │                   │            │                   │
├─────────────────────┼───────────────────┼────────────┼───────────────────┤
│ dense_27 (Dense)    │ (None, 64)        │      4,160 │ global_average_p… │
├─────────────────────┼───────────────────┼────────────┼───────────────────┤
│ add_5 (Add)         │ (None, 64)        │          0 │ dropout_23[0][0], │
│                     │                   │            │ dense_27[0][0]    │
├─────────────────────┼───────────────────┼────────────┼───────────────────┤
│ layer_normalizatio… │ (None, 64)        │        128 │ add_5[0][0]       │
│ (LayerNormalizatio… │                   │            │                   │
├─────────────────────┼───────────────────┼────────────┼───────────────────┤
│ dense_28 (Dense)    │ (None, 32)        │      2,080 │ layer_normalizat… │
├─────────────────────┼───────────────────┼────────────┼───────────────────┤
│ dropout_24          │ (None, 32)        │          0 │ dense_28[0][0]    │
│ (Dropout)           │                   │            │                   │
├─────────────────────┼───────────────────┼────────────┼───────────────────┤
│ output (Dense)      │ (None, 2)         │         66 │ dropout_24[0][0]  │
└─────────────────────┴───────────────────┴────────────┴───────────────────┘
 Total params: 378,594 (1.44 MB)
 Trainable params: 377,826 (1.44 MB)
 Non-trainable params: 768 (3.00 KB)


=== DISTRIBUCIÓN DE TIPOS DE CAPAS ===
InputLayer: 19 capas
Dense: 30 capas
BatchNormalization: 6 capas
Dropout: 23 capas
Lambda: 1 capas
MultiHeadAttention: 2 capas
LayerNormalization: 5 capas
…
